data/models/final_model.onnx (onnx, 717830 bytes, 12 tensors)

const_fold_opt__87 f4 [1, 64, 1]
00000000: c52b 01c0 1a4f eabf 2c22 87bd 8a2c 91be
00000010: c90c e3be aa75 a7bf 419d c8bf 1f19 f1be
00000020: e586 e6bd 7a3d dabf cdca abbd e5b4 b8be
00000030: c8df 88bd 7742 cebf 6de8 5dbf a5e1 8abe
00000040: 2cb8 93bd d3ee a4be 4863 29be c8bd 74be
00000050: 11a7 b83d 0187 9ebf 2e8e eebf a3a8 d23d
00000060: d0fa 6dbf ccae e8bf 9c1e 92be df5f dfbf
00000070: d52e b2bb 5d25 543d b4d8 5ebf b338 03c0
00000080: 1dfb ce3c 0a4a d33c 40b8 bebe 7348 8dbf
00000090: c136 dcbe d215 c5bf dc91 d6bc 25d2 c5bf
000000a0: 38bc 93bf 0048 d73b e0fd 5dbf db32 04bf
000000b0: 8252 f1bf 5346 05bf 968e f03d 43dd 58bf
000000c0: 523b ff3a 3a2f 043d ea5e acbd 212f a9bd
000000d0: 874d 0abf de82 a9bd 26df 61be a502 f9be
000000e0: cab1 eebe c32f 58bd 99e0 46be dc1e 4cbf
000000f0: 896a 6f3d 16f6 b9be 828a ffbe d637 f0bf
-2.0182965 -1.830539 -0.06598315 -0.28354293 -0.44345692 -1.3082783 -1.567299 -0.47089478
-0.11256198 -1.7050011 -0.083882906 -0.36075512 -0.06683308 -1.6114033 -0.8668278 -0.27125278
-0.07212862 -0.32213458 -0.16541779 -0.23900521 0.090162404 -1.238495 -1.863714 0.10286071
-0.92960835 -1.8178344 -0.28538978 -1.7451133 -0.0054377117 0.051793445 -0.8704941 -2.0503356
0.025266225 0.02579214 -0.37249947 -1.1037735 -0.43010524 -1.5397284 -0.026192598 -1.5454756
-1.1541815 0.0065698624 -0.8671551 -0.516401 -1.8853304 -0.5206043 0.11745946 -0.8471262
0.0019472635 0.0322716 -0.08416541 -0.08260942 -0.5402455 -0.08276914 -0.2205778 -0.4863483
-0.46620017 -0.052779924 -0.19421615 -0.7973459 0.05845121 -0.3632056 -0.4991036 -1.876704

const_fold_opt__85 f4 [1, 64, 1]
00000000: 5f3b 17bf 6d4a a3be fc93 18bf 21be 32bf
00000010: f703 75bf 8246 e9be c8cd b0be b665 06bf
00000020: e634 a5be a9eb 19bf f869 39bf 3ddf d0be
00000030: 14ce 01bf 3463 60bf aaa8 20bf ed85 27bf
00000040: 2c26 07bf 8eee 23bf c6c0 5ebf 843e ffbe
00000050: c07f 2dbf be08 26bf 67de 58bf 4b12 2abf
00000060: 30d2 d4be d321 07bf f254 a5be c86c f8be
00000070: 7ce1 fcbe a124 cebe d026 16bf 968e eabe
00000080: 94fb e5be a6e7 0fbf f7fd 97be 9f37 29bf
00000090: 096d 27bf 881a 40bf 10b3 06bf 4d15 1fbf
000000a0: 2680 f4be 111c 27bf 95f4 40bf 8e40 18bf
000000b0: 00ea b2be 5ec2 29bf 0426 c2be 65f0 18bf
000000c0: 2fb0 f6be 588f bebe 46f7 25bf 935d eebe
000000d0: 0484 17bf af68 01bf 65ac f7be c0ac b2be
000000e0: 5a80 c4be e718 02bf fe7a 1bbf a547 01bf
000000f0: e9a9 ffbe 263a e7be 513b 2cbf bda5 3abf
-0.5907497 -0.3189272 -0.59600806 -0.69821364 -0.95709175 -0.45561606 -0.34532 -0.5249895
-0.3226692 -0.60125214 -0.7242732 -0.40795317 -0.50705075 -0.8765137 -0.6275736 -0.6543873
-0.5279262 -0.6403588 -0.870129 -0.49852383 -0.67773056 -0.6485709 -0.8471436 -0.6643416
-0.4156661 -0.52785987 -0.3229137 -0.48520494 -0.4939078 -0.4026232 -0.58652973 -0.4581191
-0.449185 -0.5621284 -0.29685947 -0.66100496 -0.6540075 -0.75040483 -0.5261698 -0.6214188
-0.4775402 -0.652772 -0.753732 -0.594735 -0.34944153 -0.66312206 -0.3791963 -0.5974181
-0.48181292 -0.37218738 -0.64830434 -0.46555766 -0.59185815 -0.5055036 -0.48373714 -0.34897423
-0.38379174 -0.5081925 -0.60734546 -0.50499946 -0.4993432 -0.4516155 -0.6727801 -0.72909147

const_fold_opt__83 f4 [1, 64, 1]
00000000: 63ed dabc 9ace 5abc 09f4 76bc 7189 76bd
00000010: 585f 8fbc 576f e1bc 9b2f 38bd 6dce f7bc
00000020: aff7 debc 1828 00bd 2944 42bd a835 cdbc
00000030: 3e09 10bd 793b e6bc 1074 18bd 2ecc a8bd
00000040: 6d6b 14bd f6e2 92bd 6948 73bd 8a44 3fbc
00000050: d64a 43bd 114b 2bbd 2031 73bd f719 e7bc
00000060: 4b9f e1bc d8e1 33bd ea22 14bd e4dc fdbc
00000070: 6c63 8abc 8c12 66bc 5e2a e2bc 0b3c 8dbc
00000080: 471f 31bd 1653 45bd 06db 17bd e3ba f3bc
00000090: 0388 abbc 63b3 26bd 3eb1 28bd a6fe 34bd
000000a0: 6fe5 8bbc 1525 86bd d250 c3bc e618 3bbd
000000b0: 9d7a 44bd da7c 08bd 20b2 14bd 3a3e 41bd
000000c0: 84dd 2dbd 81d5 dfbc fe19 03be 41b6 edbb
000000d0: 2e6d 46bd cec6 1e3b 4acf a9bc de96 f7ba
000000e0: 9ed9 09bd 510a 10bd 30b0 02bd a1d6 cbbc
000000f0: 6f6f 16bd 4bf1 67bc f174 f1bc d37c 5fbc
-0.026724523 -0.013354922 -0.015072831 -0.060189668 -0.017501518 -0.027518911 -0.044967275 -0.030249799
-0.027217714 -0.031288236 -0.047428284 -0.02505 -0.035165064 -0.02810453 -0.03722006 -0.08242069
-0.03623526 -0.071721956 -0.059395228 -0.011674056 -0.04767879 -0.041819636 -0.05937302 -0.028210623
-0.027541777 -0.043916553 -0.03616611 -0.030989118 -0.016893111 -0.014042508 -0.027608093 -0.017240545
-0.04324272 -0.04817494 -0.03707411 -0.0297522 -0.020938879 -0.04069842 -0.041184656 -0.044188164
-0.017077176 -0.065500416 -0.023842249 -0.045678042 -0.047968496 -0.033322193 -0.036302686 -0.047178484
-0.042447582 -0.027323486 -0.12802884 -0.0072543924 -0.048443966 0.0024227384 -0.020728726 -0.0018889566
-0.0336548 -0.03516609 -0.031906307 -0.024882616 -0.036727365 -0.01415665 -0.029474707 -0.0136406

const_fold_opt__77 f4 [1, 64, 1]
00000000: cb18 ae3b 8857 343c 3adc 25bc 647d 1bbd
00000010: 1e8d c23b 2b68 903c 3be5 e33c 2b7d b4bb
00000020: 48cd 93bc 5658 a43a 0000 0000 4429 68bc
00000030: 0000 0000 b484 4b3c 07fe 913c 82b3 fdbb
00000040: bc2f e1bb e86d 9b3c 7ace 44bb 87c3 b73c
00000050: 0000 0000 a015 663c 231b 843b 0000 0000
00000060: b42b a23c a5ca a23c e308 64bc a662 543c
00000070: fa1c 98bc 0000 0000 ae21 2a3c c578 9b3b
00000080: 3292 593c 859d db3b 5ec6 a9ba d1fa 583c
00000090: bd24 b93b 8319 4d3b 3892 f83c 3bfd b43b
000000a0: 9ed8 f4ba 2085 0abc 3f3e 763c d074 32bb
000000b0: c12e 0e3c 95ef 80bc 0000 0000 ec97 cfbc
000000c0: 0000 0000 b9c8 c4bb 06f6 9f3c 0000 0000
000000d0: 5591 443c 0000 0000 14bc 44bb 13f0 02bc
000000e0: db0a 263b 0000 0000 3b20 14bc 4cc7 46bd
000000f0: 0000 0000 32bf a3bb 61be 09bd 2cb1 4c3c
0.005313014 0.011007197 -0.010123307 -0.03796138 0.0059372326 0.017627796 0.027819267 -0.0055080852
-0.018042222 0.0012538533 0.0 -0.014169995 0.0 0.012421776 0.017821325 -0.0077423463
-0.0068721455 0.018973306 -0.0030030296 0.022432102 0.0 0.014043242 0.0040315553 0.0
0.01979623 0.019872019 -0.013918134 0.012962973 -0.018568505 0.0 0.010384006 0.0047446215
0.013279485 0.0067021274 -0.0012952795 0.013243393 0.0056501315 0.0031295724 0.03034316 0.0055233515
-0.001868028 -0.008454591 0.015029489 -0.002723027 0.008678139 -0.015739242 0.0 -0.025340997
0.0 -0.0060053733 0.019526493 0.0 0.0119975405 0.0 -0.003001933 -0.0079918085
0.002533606 0.0 -0.0090408875 -0.048529908 0.0 -0.0049971575 -0.033628825 0.012493413

StatefulPartitionedCall/sequential_1/dense_1_2/Cast/ReadVariableOp:0 f4 [64, 13]
00000000: e97b e0bd 4894 91be a336 0e3e a073 1eb7
00000010: fb07 113e 9daa 3f3d d4c9 cdbd aab6 f1bd
00000020: eb8b e53d c01b 693e e334 45bd 4cd3 26be
00000030: 137e 6cbe 3fae 5bbe f993 253e 7f3d 2a3e
00000040: 92b2 7ebd 9178 55bc 15b4 833e 02da bd3d
00000050: 4582 1f3e d34f 17bd 7b10 3bbe 754b 38bd
00000060: 211e 773e 77b1 5a3b 54d5 4a3e 07aa e1bd
00000070: 4a6c 30be 70bb 453e c467 d0bd e134 c5bd
00000080: e633 8fbe ae85 be3d 22f4 0e3d a79d cdbc
00000090: 6770 70be f812 143e 3a5f 30be 79f5 41be
000000a0: 77cc 883e 7e23 793c edb1 99be 2f95 4bbe
000000b0: 40a2 8cbe 5396 ce3d 8021 91bd 324c 87be
000000c0: b1bd 643e 6947 8fbe d607 8bbe dca7 87be
000000d0: 900c 2e3e d82f 813e cdbb 85be fc56 d8bd
000000e0: 243e 433e 5cb9 123e 3547 a23b 843c 6cbe
000000f0: 7d04 72be 06ef c53c e9a7 7e3e 8a66 793e
00000100: 27f4 e83c 1ae9 afbd 1c94 043e fb41 1dbd
00000110: 1703 5e3e 4d22 8c3e 8b76 263d a322 a2bd
00000120: 776c 92be e45e ebbd 0823 043e 2f9b 27be
00000130: a295 e73b 1438 efba 3bb6 83be 7f3b 9d3d
00000140: e334 40be 0936 bc3b cbf7 97be 7ad9 03be
00000150: 85a0 59be 5274 5a3d d54c 43be 6f8b 793e
00000160: 13b5 0d3e 2a7f 15bd 6d1a 2bbd 8e8b f43d
00000170: 2a2f 6ebe 18a7 d1bc a086 57be 6123 27be
00000180: c5b5 8fbc c0e5 79be 8549 cfbd d141 1abe
00000190: 9a78 c53d 3a21 e0bd b76b 3cbe 813f 893d
000001a0: cfbf 093e a2d7 883e 12bb c33c 700f 7bbe
000001b0: 686e 18be 77d9 c4bd 1cc7 04be f61b 4fbe
000001c0: 5ed1 243e 7e18 483e a8c6 5b3e 6e59 cebd
000001d0: 3fb1 2cbe 40a2 543c b183 aebd 6d35 69be
000001e0: 3da2 2cbe 95fc 19be 11a6 1d3e d021 853e
000001f0: c7ae b23d 3c1b 53bd 16a1 543e bd62 45be
00000200: 09ce 843e 90c2 afbd 807b 67be 67e4 853d
00000210: b3d7 ba3d d08e 823e ac26 a53d dc3f ddbd
00000220: a307 c63c adca 203e 5395 8f3c 661a 38be
00000230: 1a3c 213e e806 6abe d588 08bd 7c85 bfbe
00000240: d226 a0be af5e 903e 4535 0b3d fe34 11be
00000250: 1931 833d 6aa8 aabd fee2 f9bd afd6 b3be
00000260: eb73 b0bd 0749 443e 5346 7f3e c7b8 34be
00000270: e029 13be 1ec1 a33e f287 9fbd 4e7b 3b3e
00000280: 45f0 92be 7234 453e fdf4 2f3e 7869 b9bd
00000290: 9dd0 cbbc e5e6 febc 0d3a 0e3d d0d7 553e
000002a0: e5dc 5e3e bf62 803e be61 70be e397 8dbe
000002b0: abee 5cbe 9e29 9f3d d084 89be 7de6 063e
000002c0: 8d56 e03d 73a2 36be 0060 653e 2238 7e3d
000002d0: 5078 5d3e 5908 74be 1a1a 90bd 2c79 22be
000002e0: 8e8d 01be 7e0d 093e 5f12 33bd fb4e a5bd
000002f0: e476 3d3e 593b ad3d b544 9b3d 8cf9 08be
00000300: 0ec3 4a3e df99 f4bc 79c6 7c3d 2098 90be
00000310: e2c8 5fbd 487f e83d eb00 bcbd a8cf 85be
00000320: 237a 0c3e 5032 a13d 2dac 4abe f235 c5be
00000330: 1736 6fbe 5a6d 073d 3472 96be 11af acbe
00000340: 7e9c 613e 682b 1c3e 746c 91be 287e 6dbe
00000350: 7cd5 413d 768f a7bc c81f 583e 84f1 18be
00000360: 099d 68bd 4153 b03b 3d6b 1d3e 2c62 77bd
00000370: 41d6 213e 46a5 68bd 5184 8bbe e581 84be
00000380: 1338 3fbc e6f4 7ebe d7d1 81be e8cc b0bd
00000390: eed0 67bd d973 8abe ea81 8bbe 79eb 273e
000003a0: a3df eb3c b165 b33d 27f1 cfbe abd3 4dbe
000003b0: fcdf 05be 9ef9 89be 3596 ddbd 5daa d03d
000003c0: db1f b1bc 621e 163e c172 7abd b649 8b3d
000003d0: 5adc 00be 197a ecbd 7831 a03d ec0a 02be
000003e0: 96fa 953d 1729 bfbe f390 a0be 1150 133d
000003f0: c7a4 66bc 255e 843d 8516 e03d 1d3d 7fbe
-0.10961134 -0.28433442 0.1388803 -9.444455e-06 0.141632 0.04679357 -0.10048261 -0.118024185
0.11208328 0.22764492 -0.04814614 -0.16291541 -0.23094968 -0.21453188 0.16169728 0.16625021
-0.062182017 -0.013029234 0.2572333 0.09270097 0.15577038 -0.03694136 -0.18268006 -0.044993836
0.24132587 0.0033369937 0.1980794 -0.11018758 -0.17228809 0.19309783 -0.10176042 -0.096292265
-0.27969283 0.09302841 0.034900792 -0.025099589 -0.23480378 0.14460361 -0.17223826 -0.18941297
0.26718494 0.015206216 -0.3001856 -0.19881128 -0.27467537 0.10087266 -0.07086468 -0.2642532
0.22337987 -0.2798417 -0.27154416 -0.26495254 0.1699698 0.25231814 -0.26119843 -0.10563466
0.19066674 0.14328521 0.004952336 -0.2306996 -0.23634525 0.024161827 0.2486874 0.24355522
0.028436733 -0.085893825 0.12947124 -0.038393002 0.21680866 0.2736992 0.040640395 -0.07916763
-0.28598377 -0.11492708 0.12903988 -0.16367792 0.007067398 -0.0018250966 -0.25724968 0.076773636
-0.18770175 0.005743746 -0.2968124 -0.1287593 -0.2125264 0.053333588 -0.19072278 0.24369596
0.13838606 -0.036498226 -0.04177325 0.119406804 -0.23260179 -0.025592372 -0.21047449 -0.1632209
-0.01754273 -0.24404049 -0.101214446 -0.1506417 0.096421435 -0.109438375 -0.18400465 0.067015655
0.13452075 0.26727015 0.023892913 -0.24517608 -0.14885867 -0.096117906 -0.12966579 -0.2022551
0.16095492 0.19540593 0.214625 -0.10075651 -0.16864489 0.012978137 -0.08521212 -0.22774287
-0.16858764 -0.15037759 0.1539538 0.2600236 0.087247424 -0.051539645 0.20764574 -0.19275947
0.25938442 -0.08582032 -0.22605705 0.06537705 0.091231726 0.25499582 0.08064017 -0.10803196
0.024173563 0.15702315 0.017527258 -0.1797882 0.15745583 -0.22854197 -0.03333362 -0.37406528
-0.31279618 0.28197238 0.03398635 -0.14180371 0.06405849 -0.08332904 -0.122014984 -0.35124728
-0.086158596 0.19168483 0.2492917 -0.17648612 -0.14371443 0.31983274 -0.077896014 0.18308756
-0.28698936 0.19258288 0.171833 -0.0905332 -0.024879748 -0.031115958 0.03472333 0.20883107
0.21763952 0.25075337 -0.23474786 -0.27654943 -0.2157542 0.0777161 -0.2685914 0.13173862
0.10954008 -0.17835407 0.22399902 0.06206525 0.21627927 -0.2383131 -0.070362285 -0.15866536
-0.12651655 0.13384053 -0.043718692 -0.08071705 0.18502384 0.08458585 0.07581464 -0.13376445
0.1980097 -0.029858528 0.061712716 -0.28241062 -0.054634936 0.11352402 -0.091798626 -0.26134992
0.13718466 0.078709245 -0.19792242 -0.3851772 -0.23360477 0.03306327 -0.29384005 -0.33727315
0.22032353 0.15250933 -0.28403056 -0.23192656 0.047322735 -0.02045415 0.21105874 -0.14935881
-0.056790385 0.0053810184 0.1537294 -0.06039636 0.15804388 -0.056798242 -0.27249387 -0.25880352
-0.011671084 -0.24898109 -0.25355408 -0.08632833 -0.056595735 -0.2704151 -0.27247554 0.1639842
0.028793162 0.087596305 -0.40613672 -0.20100276 -0.13073725 -0.26948255 -0.10819665 0.10188744
-0.021621635 0.14660028 -0.061144594 0.068011686 -0.12584057 -0.11546726 0.078219354 -0.12699479
0.07323186 -0.37336037 -0.31360587 0.03596503 -0.014077372 0.06463269 0.10941795 -0.24925657

StatefulPartitionedCall/sequential_1/dense_1_2/Add/ReadVariableOp:0 f4 [13]
00000000: 9bf2 0cbe 0ac2 1e3d 27a2 ad3c 1b0e 13bd
00000010: 7ef5 c9bb 1c4c 8cbc b439 af3c 4a2c 93bd
00000020: 1746 24bd f296 ca3a 25d6 963c a259 473c
00000030: 1b32 b63d
-0.13764422 0.03875927 0.021195484 -0.035902124 -0.006163298 -0.017126136 0.02138982 -0.07186182
-0.040105905 0.0015456362 0.018412659 0.012167366 0.088962756

StatefulPartitionedCall/sequential_1/dense_1/Cast/ReadVariableOp:0 f4 [2560, 64]
00000000: 7b26 443c 9e93 2ebd 7d43 ad3c afa2 8c3d
00000010: 6764 55bd 029a 14bd f1d8 0f3d 69b5 babb
00000020: f8f7 213d ea87 1f3d 70fe a1bc 0714 f3bc
00000030: 84f1 083d 3dd0 003d 5d41 7dbc 4281 6e3c
00000040: 5c4f e13a 172b ea3c a8e6 683d ee6e b13c
00000050: ef38 c1bc 200c 64bb db2c 163c 57ab 833d
00000060: 6bd6 4e3c 81d0 cbba 4144 4bbc 4b12 ab3d
00000070: 9d6f 83bd b82b ccbc ee0c 5fbd fe18 e03c
00000080: 312e abbb 6a05 8a3d c11b 9d3c cb70 99bc
00000090: c9d3 c73d d6ab 0a3d 185a 283c 3650 293d
000000a0: cc43 14bd 2e1b 01bc e941 213c 7d9c 8dbd
000000b0: 5140 bdbc 93a0 7d3d 47e5 66bd 1e98 31bb
000000c0: 03ca 3cbc 49a0 223e 11cb a03d 5567 e0bc
000000d0: 45ea 49bd 6a03 473d b660 e7bc 7f6d 24bb
000000e0: 6ecf b0bc b1e4 803c a3af 193d cdd9 54bb
000000f0: e7f9 a6bc 45d4 d6ba c83c 2a3c 5259 0d3d
00000100: abd7 973c 2c79 6e3d c738 0d3d 937a bd3b
00000110: d9a0 233b e214 af3a 6977 373a cb07 c4bb
00000120: 9b58 d23c 246c 03bd 046c c23c 84a6 debc
00000130: 6932 07b9 ad3a 63bd f0c1 47bd 0d27 b13c
00000140: 01c2 5d3c 6050 293c 4479 15bc c9af 6f3d
00000150: 5ec8 1f3d 83c5 233c 3a85 5bbc 28bd 74bc
00000160: 6618 0c3c 9662 1cbd 22b6 723b bf74 b8bc
00000170: 2fb7 11bd 0496 a23c c607 833c 5f97 4bbd
00000180: 5d5f 503b aaae 85bd c5d9 bdbc 87d5 c1bc
00000190: a762 b4bc a2a5 dabc d080 363d 8e5d 06bd
000001a0: 4830 9dbc 64df f63b f490 c43d c865 8fbc
000001b0: 4de0 aa3b 05fc 28bb 70c0 89bd 7161 803c
000001c0: 08f9 bfbd d63c 933d c011 d6bc 0cf2 8b3d
000001d0: 6132 a73c 4fff 6cbc c44b 57bd 2a53 413d
000001e0: e513 193d 1ac6 0abd 4104 383c 8f36 883b
000001f0: 20ff 41bd 043d 06bd ca12 a43b cf39 96bd
00000200: 161d d8bb eec3 d43c e15a 99bd 202c 1e3d
00000210: 312f 76bb 1424 c1bc 2097 dabc 9fc8 00bd
00000220: ee24 93bb 7b88 323d dd07 4ebd 513d 213d
00000230: 7296 e3bc 8ea4 03bc e949 273d f626 0c3d
00000240: bf2c c73b b095 fc3c 5568 f2bc 645d 08bd
00000250: 9d27 93bd f942 72bb 4e32 4f3d 823d 8bbd
00000260: 49d8 1a3d 2c53 1fbb 9633 06bd e349 a83c
00000270: ca39 b33c 086c aabc ac8c cd3b 3527 62bd
00000280: 94ab cb3c 8d02 31bc 9122 11bd d386 29bd
00000290: 2096 80bd f5ce 05bd b146 623d 8d0d cb3d
000002a0: 56e9 243b 2517 0fbd 8538 0c3d e52f 3cba
000002b0: e7d9 a63d cefd 81bc 34d2 ee3c 626f 2d3c
000002c0: d21e 41bd 275d 3dbd 3ec0 96bc 3247 3d3c
000002d0: d55a 4b3d 9c40 b73c 6834 2dbc 2872 3ebb
000002e0: 9618 8ebd 69b8 e03b d03f 0b3d da90 27bd
000002f0: 9b69 07bd 15e7 443d f4af bb3c d7b6 7ebd
00000300: 1d1e 243d c624 1d3d 1ff8 0bbd 4856 bc3c
00000310: 8e9f 4d3d 77a7 2b3c 4623 b43b 07f3 893c
00000320: 07cd 03bb becd 003d 69bf ad3c e6f0 ca3b
00000330: 7802 48bd a445 febc 300a fdbc b400 6d3d
00000340: 15ac 17bd abc5 55bb 11b3 7ebd 4015 8a3c
00000350: 8ec4 883b 3d9e 3b3d ae2a ab3c 1628 a1bc
00000360: 178c 2e3d 0c8f 8abd 6ff4 1f3d 3054 8f3b
00000370: 8c5d 693d f0ab 21bb 58be 183d 6368 d73c
00000380: 3657 f1bc b7d6 ba3b b84b 1f3d a21a 38bd
00000390: ef7a 0bbd 521e 8abd 0c93 f83a 3311 103d
000003a0: 9268 16bd 4037 d6bc 50da 453d b7be 013c
000003b0: 4379 593d 5604 83bd e7ff 51bd 84dc 5f3c
000003c0: a99b 1c3d 58d8 0ebd 9b72 edbd 6bde 513c
000003d0: 1e95 893d e9d5 623c 7dc5 cf3c cc62 69bc
000003e0: 9f9c 763d 8bda f4bb 7dce 4c3d d5af 85ba
000003f0: da9a 8bbb e77e 5abd 79df 443b 7449 37bd
0.011972065 -0.042621247 0.021150345 0.06866967 -0.052097704 -0.036279686 0.035119 -0.0056978953
0.039543122 0.038947977 -0.019774646 -0.029672636 0.033433452 0.03144859 -0.015457478 0.014557185
0.0017189789 0.028585 0.056860596 0.02165934 -0.023586718 -0.0034797266 0.009165968 0.06429165
0.012624363 -0.001554981 -0.01240641 0.083530985 -0.06417773 -0.02492319 -0.05445569 0.027355667
-0.0052240123 0.06739314 0.019178273 -0.018730542 0.09757192 0.03385528 0.010275386 0.04133626
-0.03619747 -0.007880015 0.009842374 -0.069146134 -0.023101958 0.061920714 -0.056371 -0.0027098726
-0.011522773 0.15881456 0.07851232 -0.027393023 -0.049295682 0.04858724 -0.028244358 -0.0025089679
-0.021583285 0.015734049 0.037521016 -0.0032478452 -0.020382835 -0.0016390166 0.010390468 0.03450901
0.018535456 0.058221027 0.034477975 0.0057824343 0.00249677 0.0013357664 0.00069986895 -0.0059823743
0.025677016 -0.032085553 0.023733146 -0.02717901 -0.00012893383 -0.05547588 -0.048768938 0.021625066
0.013535024 0.010334104 -0.00912315 0.05851725 0.039009444 0.009995821 -0.013398463 -0.0149376765
0.008550739 -0.038179956 0.003703483 -0.022516606 -0.035575088 0.019846924 0.015994918 -0.049704906
0.0031795122 -0.06527455 -0.02317513 -0.023661388 -0.022019697 -0.026690308 0.04455644 -0.032804064
-0.019188061 0.0075339545 0.0959796 -0.017504588 0.005214727 -0.002578498 -0.06726158 0.015671464
-0.09373671 0.07189338 -0.02613151 0.06833276 0.020409765 -0.014465167 -0.05256249 0.047198452
0.03737249 -0.03388033 0.011231483 0.0041568945 -0.047362447 -0.032773033 0.0050071226 -0.07335245
-0.006595264 0.025972333 -0.07488037 0.0386163 -0.003756475 -0.023576774 -0.02668339 -0.031441327
-0.0044904863 0.04358719 -0.050300468 0.039365117 -0.027781699 -0.008034838 0.04084197 0.034216844
0.006078332 0.030833095 -0.029590765 -0.03329219 -0.0718529 -0.0036966188 0.050585084 -0.06798841
0.03780392 -0.002431105 -0.03276404 0.020543044 0.021878142 -0.020803466 0.006272873 -0.055213172
0.024862088 -0.010803831 -0.035433356 -0.041388344 -0.06278634 -0.032668073 0.055243198 0.09914694
0.0025163493 -0.03493418 0.03423359 -0.00071787677 0.0814703 -0.015868094 0.029152967 0.010585638
-0.047148533 -0.046231415 -0.018402215 0.011552619 0.04964717 0.022369675 -0.010571577 -0.0029059742
-0.06938283 0.006857921 0.033996403 -0.040909626 -0.033059698 0.04807194 0.02291105 -0.06218609
0.04006778 0.038365148 -0.034172174 0.02299036 0.05020099 0.010476938 0.005497369 0.016839517
-0.002011122 0.03144621 0.021209436 0.006193268 -0.04883048 -0.031039067 -0.030888647 0.057862
-0.037029345 -0.003261904 -0.06218249 0.016855836 0.004173822 0.045805205 0.020894375 -0.019672435
0.04261407 -0.06765565 0.03905147 0.0043740496 0.05697398 -0.0024669133 0.0372909 0.026294893
-0.02946053 0.0057018655 0.03889057 -0.044947274 -0.034052785 -0.067440644 0.0018964722 0.035172652
-0.03672082 -0.026149392 0.048303902 0.007919005 0.05309416 -0.063973114 -0.051269438 0.013663415
0.038234387 -0.03487429 -0.11594125 0.012809376 0.06717895 0.0138449455 0.025362724 -0.014244746
0.06020796 -0.0074723414 0.05000161 -0.0010199497 -0.004260403 -0.05334368 0.0030040427 -0.044747785

StatefulPartitionedCall/sequential_1/dense_1/Add/ReadVariableOp:0 f4 [64]
00000000: abde 30bb 7f80 dabb 6dfb 19bc c652 19bc
00000010: 53a2 69bc 28fd a93b 957e a9bc 6891 5fbc
00000020: ad86 0bbc f1a1 68bb 82a6 23bb 14e2 1cbc
00000030: 3440 353c 0af0 21bc dd61 84bc 8a09 e63b
00000040: 762d ddbc d17f 02bc f8d6 90ba 49f3 f03a
00000050: b0c5 bfba a226 06bc abb0 cabb f40a 1fbc
00000060: fdca dfbb 666f 49bb b49e 04bc ba61 d6bb
00000070: c3cc 353b c7c3 f8bb ba12 08bc 4e57 38bc
00000080: 028e f5bb 2725 183b 80fb dcbb 32f7 49bc
00000090: 92cd e9b9 f532 1ebc af05 08bc 40f1 04bc
000000a0: 99ca 47bc ea09 bdba c2d1 a539 3b67 f83b
000000b0: f861 04bc c92e 14bc 42e0 bfbc 8dd3 0ebc
000000c0: 9814 44ba 649b b5ba 1c01 bcbb 4f20 37bc
000000d0: 3b4b 88bb 1309 0fbc 63ce 1ebc 6363 98bc
000000e0: 2801 0dbb 6afd ef3b 3e3f 94bc 53a7 73bc
000000f0: bae0 e5bb e22b 10bc f1f6 15bc 305c 78bc
-0.002698819 -0.00666815 -0.0093983235 -0.009358114 -0.0142598925 0.0051876493 -0.020690242 -0.013645507
-0.008515996 -0.0035496915 -0.0024971073 -0.009575386 0.0110626705 -0.00988389 -0.016159946 0.00702018
-0.026999217 -0.007965044 -0.0011050394 0.0018383052 -0.0014631059 -0.008187922 -0.0061856112 -0.009707201
-0.006829618 -0.0030736565 -0.008094478 -0.0065424116 0.0027740456 -0.007591698 -0.008305246 -0.011251284
-0.0074937353 0.0023215504 -0.0067438483 -0.012327002 -0.00044594385 -0.009655704 -0.008302136 -0.008114159
-0.012194299 -0.001442251 0.00031627534 0.0075806654 -0.008079998 -0.009044358 -0.023422364 -0.00871743
-0.00074798753 -0.0013855514 -0.005737437 -0.011177137 -0.004159359 -0.008730191 -0.009692761 -0.018602079
-0.0021515582 0.0073239105 -0.018096562 -0.014871436 -0.007015315 -0.008799525 -0.009153114 -0.015158698

StatefulPartitionedCall/sequential_1/conv1d_1_2/convolution/ExpandDims_1:0 f4 [64, 64, 1, 3]
00000000: eb6c 353d 9abf c5bc a604 aabd eae6 c63d
00000010: a8a4 6dbd ef56 953c cf7a 40bd 6e6b 83bd
00000020: b15b ab3d 67be 013e 6bfc 80bd e551 11be
00000030: 7458 793d 025c a73d e218 9bbd cd76 603d
00000040: 533d 0e3d e220 b43d 3dd1 9b3c 6990 313c
00000050: 46b0 aabd fb66 65bd e72a 513d d91a f8bd
00000060: 3c2d 23bd e7c9 543c 0864 793c 9ca0 0f3d
00000070: 4b82 013e fb85 f0bd 220b 093e 9190 ee3c
00000080: 2fa7 95bd 6486 f43d 4651 05be 0688 b1bc
00000090: d2dd 6f3d 0d40 85bd 02ee ef3b f866 b2bc
000000a0: 2dca 9ebc 44a7 853d f816 213d 8158 63bd
000000b0: 488e 66bb e439 9d3d fc43 0c3e 2a71 93bd
000000c0: eb82 783d 5051 8a3d 2424 e6bd e367 cbbd
000000d0: 13b8 9abd 649a 653d bb97 3abd 4ed8 a83d
000000e0: 2282 953c f189 5ebd d3d7 c43d 00fe 7cbd
000000f0: cd8f e7bb 55fc 96bd d80d 3a3d 1737 193c
00000100: ee17 d73d 4ae4 0ebe 7b87 edbd 0402 e73d
00000110: c17a c33d 44a1 823d 5fdd b7bd 43cd 9ebc
00000120: 2b9e f83d e3f1 dfbd adb0 933d 930b d9bd
00000130: 72ed 553d 5c9a ae3d abba e93a 0434 033d
00000140: 38f3 afbd 9f38 7dbd b15b 673d d663 abbb
00000150: 3a1d 86bd 058c 12be 31b6 25bd ab10 94bc
00000160: 8a08 b6bc 0b72 ff3c f32b b33d f145 fd3c
00000170: 34f8 49bc 3442 e43d 2457 ffbd ebf1 edbc
00000180: 653d 2f3d 2025 a4bc 87d9 79bd d9a0 0c3a
00000190: 0e37 febc ae5b 30bd 7754 25bd a58c 953d
000001a0: 5086 723d 404a 963c ab35 a93d de37 3bbd
000001b0: fc54 113d ce64 84bd 7407 11be fefc 23bd
000001c0: 61de 3abd c075 9cbd ca35 823d 42ed 69bd
000001d0: e24f d43d 8f62 14be d083 41bd 5a49 be3d
000001e0: c2ad 9a3d f9bf 853d dd93 99bd b193 463d
000001f0: c0dd 6cbd c5df 6e3d 3515 d6bd 825c fa3d
00000200: 8761 e13c 81af 123c aa39 a53d 2a6c b0bd
00000210: 9b73 c33d 87b1 633d f685 b0bd d89c dabd
00000220: f3c9 0cbe 212f c53d c11d a1bd f15a 63bd
00000230: fcfd f83c d44a af3d 2d33 bbbd b69f cfbd
00000240: 4b82 08bd d8ff 9f3c 3556 bfbd b049 cabb
00000250: abf8 ccbc 808d 76bd 2d67 6dbd a172 bcbd
00000260: a63b 9a3d 76b5 763d 08b9 3d3b c8c3 b23d
00000270: 7a2c da3b efe2 c8bc 1944 01be 2a20 4cbd
00000280: 7f0c 223b bb88 ec3d 6444 023d ea3d 5b3c
00000290: 3bd0 85bd 630e aebd 2bf8 893d ce31 d63c
000002a0: f677 833d 2be5 923d 10de 21be 8a2f ae3c
000002b0: 9da8 f73d ebcb f13c 2538 90bd 4e4a d23d
000002c0: c0d9 583d 67f8 03be 8734 49bd 48c4 cebd
000002d0: e5a6 03be 194a 77bd 12fa a83b 1fc0 263d
000002e0: 5a78 42bd 9c70 ba3d e4d7 ae3d bbed d03c
000002f0: cc28 01be 09a9 373d 3551 623d 3423 b2bd
00000300: 93ed 67bd 5779 2ebd 3f12 16bd 0bd9 853d
00000310: e651 e0bb 2aa8 863d 0b78 eabc c29f 6d3c
00000320: dc57 d73c 2cfd 813c 05e7 eabd b48a a33d
00000330: d572 6dbc 75d7 c2bd c384 11be 36e8 ec3c
00000340: 478a 91bd af90 c7ba 000a eebd 7a59 183d
00000350: 8be9 e3bd ddf6 a93d a722 d13d e3fb e43d
00000360: aed3 59bd 5231 b13c 121d c1bb 2408 9fbc
00000370: 4c6c c63d 24af 643c c9d0 91bd 1aa7 593c
00000380: 3df9 9a3c aca2 09be bb12 ecbd 5eed 663b
00000390: 07e7 d83d 80c0 8dbd 5f40 1ebb cf18 8cbc
000003a0: 4410 e1bd e287 ab3d 68b0 d0bd 676c e93d
000003b0: 1d55 27bd f95c 443d c814 94bc 7462 b9bd
000003c0: c7d3 b3bd 2954 de3c f9ab 0c3e 9d50 debd
000003d0: 3c9a 37bd e77f 11be 39b8 fe3c 5107 b03d
000003e0: d989 bbbd 8e89 783c 818e 10bd 7f80 8c3d
000003f0: fef1 873d e51e 5dbb a4d7 68bc 5a45 c6bd
0.044293325 -0.024139214 -0.08301668 0.09712012 -0.058018357 0.01822993 -0.04699212 -0.06416975
0.08367098 0.12670289 -0.06298145 -0.14191397 0.06087537 0.08171846 -0.075731054 0.054800797
0.034726452 0.087953344 0.019020671 0.010837653 -0.08334403 -0.056006413 0.051066305 -0.12114496
-0.03983806 0.01298759 0.015221603 0.03506528 0.12647359 -0.11744305 0.13383153 0.029121669
-0.07307278 0.119396955 -0.13019285 -0.021671306 0.058561154 -0.06506357 0.007322074 -0.021777615
-0.019383514 0.06526044 0.039328545 -0.055504326 -0.003518002 0.076770574 0.13697809 -0.07199319
0.060671728 0.067537904 -0.11237362 -0.09931924 -0.075546406 0.05605544 -0.045554858 0.08244382
0.018250529 -0.05433077 0.09611478 -0.06176567 -0.007066703 -0.07372347 0.04542336 0.009351513
0.10502611 -0.13954273 -0.115981065 0.11279681 0.09544898 0.06378415 -0.0897777 -0.019384986
0.12139543 -0.10934808 0.072114326 -0.10597911 0.0522284 0.085255355 0.0017832121 0.032032028
-0.08591312 -0.061821576 0.056483928 -0.005230407 -0.06548543 -0.14311226 -0.040456954 -0.018074354
-0.022220869 0.03118231 0.08748617 0.03091714 -0.012327243 0.1114544 -0.12467793 -0.02904602
0.04278316 -0.020037234 -0.060998466 0.00053645443 -0.031032111 -0.043056183 -0.040363755 0.073022164
0.05921012 0.018345952 0.082621895 -0.045707576 0.035481438 -0.064645395 -0.14163 -0.040036194
-0.045622233 -0.076396465 0.06357916 -0.057111032 0.10366799 -0.14490722 -0.047244847 0.092913345
0.07552673 0.065307565 -0.07498906 0.048480693 -0.057828665 0.058318872 -0.10453264 0.12224676
0.027512325 0.008952976 0.08067639 -0.08614381 0.09543534 0.055589225 -0.08619301 -0.10674447
-0.13748913 0.0962813 -0.07867003 -0.05550665 0.030394547 0.08559194 -0.091406204 -0.10137884
-0.033327382 0.019531175 -0.093426146 -0.006173335 -0.025020918 -0.06019354 -0.057959724 -0.09201551
0.07530908 0.06023165 0.0028949399 0.087287486 0.006658134 -0.024522273 -0.12623633 -0.04983536
0.0024726687 0.11549517 0.031803504 0.013381461 -0.065338574 -0.08498838 0.067367874 0.026146796
0.06419365 0.071726166 -0.15807366 0.021262903 0.12092707 0.029516181 -0.07041959 0.10268079
0.052942038 -0.12887727 -0.04912236 -0.100960314 -0.12856634 -0.0603734 0.005156764 0.040710565
-0.047478057 0.0910351 0.085372716 0.025503984 -0.12613219 0.04483894 0.055253226 -0.08698121
-0.056623053 -0.042596187 -0.036638495 0.06535538 -0.0068457006 0.065750435 -0.028621694 0.014503421
0.026287012 0.015867792 -0.11469845 0.0798544 -0.01449271 -0.095137514 -0.14210801 0.02891932
-0.071064524 -0.0015225614 -0.11623001 0.037194706 -0.11128529 0.082990386 0.102116875 0.11180856
-0.05318039 0.021629963 -0.005893358 -0.019413061 0.09688625 0.013957772 -0.07119901 0.013284469
0.018917674 -0.1344096 -0.1152701 0.0035236697 0.1059094 -0.06921482 -0.0024147255 -0.017101673
-0.109894305 0.08375527 -0.10189897 0.11397629 -0.040852655 0.047940228 -0.018076316 -0.090519816
-0.08780628 0.02713974 0.13737477 -0.108552195 -0.044824824 -0.14208947 0.031093704 0.085951455
-0.09157152 0.015169514 -0.035292152 0.06860446 0.06637953 -0.0033740338 -0.014211569 -0.096811965

StatefulPartitionedCall/sequential_1/conv1d_1/convolution/ExpandDims_1:0 f4 [64, 1, 1, 3]
00000000: 00b5 cd3d cba9 003e 779a 113e 8951 583d
00000010: e365 ec3d 2b7e 813d c42b 00be 5919 4fbe
00000020: 983b 043e 332e eb3c 8177 0e3e e566 efbd
00000030: aed7 35bb c351 c4bd 91a6 c43d 1e8e 0a3e
00000040: 5311 253d ea85 23bd f43e 173d 791a 56bd
00000050: 542d 263e 8336 eb3d 4edc 2bbe d929 ac3d
00000060: 56d9 dcbd bfb0 37be c11b 1f3e 5f22 8a3c
00000070: 06e9 1b3e ac9c 1e3e f22c b6bd 9984 adbd
00000080: 4060 60bb 07be 2d3e 7724 29be d10b aabc
00000090: e49f 13be 6773 f4bd 8051 21bb 5bc3 fa3d
000000a0: 3bfe 713d ae83 723c 3a92 f73d a52c 88bd
000000b0: 2df8 073c 7515 2cbd 07a4 073e 18ad 11be
000000c0: 128f 5dbc 7be9 03be 8bc8 403d dac5 983c
000000d0: 9018 17be fd8c 983d 5985 9b3d 9896 05bd
000000e0: 0a3e 2cbd 5824 efbd 03c6 dabb 50b5 5c3d
000000f0: 630a 31be cf65 22be 25b6 1cbe 36f1 033e
00000100: 8c25 eabd 9b7e 0a3e 8162 ad3d 54d6 a73d
00000110: 4cbf d33d d200 29be 9021 51bc 6c34 03bd
00000120: 218c c73c de19 ff3d eb69 b3bd 82ff ae3d
00000130: 4aca e03d a710 913c d216 323e 4181 9ebd
00000140: 9ba2 37be 85b5 2bbc 958b f63d 0596 063e
00000150: 5212 493c 427c 5e3c baad 15be 4b1d 07be
00000160: f4cc 25bd bb4c 1abe 79ed 983b 2b84 a6bd
00000170: 01e0 013e c86a 2d3e 8cce 243d 50e5 353e
00000180: e068 55be 06c4 e63c 1a32 5abd ed07 a1bd
00000190: 2dc4 6a3d 507e 4dbe 8030 fbbd 91bd 023e
000001a0: 70db aeba 5662 95ba fa65 173e 7223 0dbd
000001b0: d5df 223d 2ea8 1dbd 9d09 153d 21c0 c73d
000001c0: db1d 403e 4f78 b2bc 0b84 143d 1d61 56be
000001d0: c92b 3bbe 09e3 473c 082c 923d 7e9a 183e
000001e0: ccde fb3d e8de 203e 2ae1 90bd b40c e1bd
000001f0: e311 763d 8ae6 febd 5314 453d c9e2 013e
00000200: 5906 c3bd 35e3 ab3d 0345 22be d105 e23d
00000210: 397b d73d 4675 d33c ab6e 183e 819a d43d
00000220: 96e9 6a3d 3128 b6bd d22a fabd f526 bbbd
00000230: 45d7 e1bd f96a a5bd 621f 263e d0fe db3d
00000240: c4d3 51bd a781 ccbd 1893 5fbd 0600 2bbe
00000250: 6ece a9bb de74 33be a47a 2d3d 0cb9 81be
00000260: 704a 88bd ed1b 89bd 7a46 80bd 88d7 f8bc
00000270: 9e9a 03be 37ab bb3d 5101 283d 3a18 c5bd
00000280: 30e9 39bc a755 f1bd 9293 e63d be14 093d
00000290: d276 4abe d02e c0bd 8ff0 dfbc 97eb 263e
000002a0: 493d 923d 57f1 cebd 5369 5a3d cca4 9fbd
000002b0: 0fbe fcbd b066 abbc 4448 0cbe 3052 1f3e
000002c0: 19b7 b8bd 42ea f33c b128 8b3d d096 023e
000002d0: 014c 2dbe 388c 63bd b363 2fbe a8ac 253e
000002e0: f271 b2bd 8f1e a4bd 96d0 763d 2750 57be
000002f0: 52c8 3d3e b817 393e 8625 20bd c575 ff3d
0.10044289 0.12564771 0.1421908 0.052812133 0.11542871 0.06322893 -0.12516695 -0.20224513
0.12913358 0.028708553 0.13912775 -0.116895474 -0.0027746963 -0.09585907 0.096020825 0.13530776
0.040299725 -0.039922632 0.03692527 -0.05227134 0.16228229 0.11485007 -0.16783258 0.08406419
-0.10783641 -0.17938517 0.15537931 0.016862093 0.1522561 0.15489453 -0.088952914 -0.084725566
-0.0034237057 0.16967021 -0.16517816 -0.020757588 -0.14416462 -0.11936074 -0.0024615228 0.12244292
0.059080344 0.014801903 0.120884374 -0.0664914 0.008298916 -0.04201265 0.13246165 -0.14226186
-0.01352288 -0.12882034 0.047066253 0.01864903 -0.14755464 0.074487664 0.075937934 -0.03261432
-0.042051353 -0.11676854 -0.006676437 0.05388385 -0.17289118 -0.1585915 -0.15303858 0.12884983
-0.11432943 0.13524859 0.08466054 0.08195177 0.10339221 -0.16504219 -0.01276435 -0.032032415
0.02435881 0.12456106 -0.087604366 0.08544828 0.109760836 0.017708136 0.17391518 -0.07739497
-0.17933123 -0.010480289 0.12038342 0.13143165 0.012272434 0.01357943 -0.14617053 -0.13194768
-0.04047866 -0.15068333 0.004666981 -0.08130678 0.12683107 0.16935265 0.04023604 0.17763257
-0.20840788 0.028169643 -0.053270437 -0.0786284 0.057315994 -0.20067716 -0.1226511 0.12767626
-0.0013340544 -0.0011397104 0.14784995 -0.03445763 0.039764244 -0.038490467 0.03638612 0.097534426
0.18761389 -0.021785883 0.03625874 -0.20935483 -0.18278421 0.0122001255 0.071373045 0.14902684
0.122983545 0.15710032 -0.07074197 -0.10988751 0.06007565 -0.124463156 0.048115086 0.12684168
-0.09522695 0.08392946 -0.15846638 0.11036266 0.1052155 0.025812756 0.14885966 0.10381032
0.05735167 -0.08894385 -0.122151986 -0.0913829 -0.110273875 -0.08077044 0.16222909 0.10741961
-0.051227346 -0.09985667 -0.05458364 -0.16699228 -0.005182079 -0.1752505 0.042353287 -0.25336492
-0.06654823 -0.066947795 -0.06263442 -0.03037621 -0.1285195 0.09163516 0.04101688 -0.096237615
-0.0113471 -0.11783915 0.112586156 0.033467047 -0.19771889 -0.09383929 -0.027336387 0.16300808
0.071405955 -0.10104626 0.0533231 -0.077951044 -0.12340938 -0.020922989 -0.13699442 0.15558696
-0.09019298 0.029774789 0.06794871 0.12752843 -0.16923524 -0.055553645 -0.17127876 0.16179144
-0.087131396 -0.08013641 0.060257517 -0.2102667 0.18533447 0.18075454 -0.039098285 0.12473635

StatefulPartitionedCall/sequential_1/BN2_1/batchnorm/mul:0 f4 [1, 64, 1]
00000000: 6138 8440 e29c 0541 1775 2840 8daa 0b40
00000010: c547 a63f 00ef a040 885e d540 f203 6a40
00000020: 54e5 e340 71e6 7c40 0ac1 1e40 0c49 c140
00000030: 4ee6 7340 20aa d63f 84d7 3a40 6ef7 e93f
00000040: a380 6940 a4af 3540 a1be dc3f 9538 a340
00000050: fdc9 2d40 3145 1240 ce74 a83f 1e0e 3a40
00000060: 2e5c b040 94b8 da40 0b38 0241 d091 df40
00000070: 31b7 7840 355a e440 765b 9240 a91a 8e40
00000080: 57b1 9740 b203 8440 033a 3241 ce0b 6340
00000090: 5ca8 6540 3f6c ee3f 8748 3040 e64a 0840
000000a0: 97c6 a040 4e57 6140 a0fb 1940 bf5d 7840
000000b0: c87e ea40 7d6b 5740 47b7 b840 fcc9 6940
000000c0: d1b1 9540 6051 f740 fc41 fd3f 1d05 6940
000000d0: 194c 4840 1067 9440 ca52 4b40 e5d2 2041
000000e0: 2cfd 6d40 cfbb c740 4c89 7c40 2539 1240
000000f0: 434f 8240 97eb 9840 7bc3 2040 19cc 0b40
4.131882 8.350801 2.6321466 2.1822846 1.2990652 5.029175 6.6677895 3.6564908
7.121744 3.951565 2.4805322 6.040167 3.8109317 1.6770668 2.919404 1.8278635
3.6484764 2.8388453 1.7245675 5.100657 2.7154534 2.285473 1.3160646 2.9071116
5.5112524 6.8350315 8.138682 6.9865494 3.886181 7.1360116 4.5736647 4.4407544
4.740398 4.125451 11.139163 3.5475955 3.5884008 1.8626784 2.7544267 2.1295714
5.024242 3.5209537 2.405983 3.8807218 7.327976 3.3659356 5.7723727 3.6529531
4.677956 7.7286835 1.9785762 3.640937 3.1296446 4.637581 3.176928 10.051488
3.7185774 6.241676 3.94588 2.2847378 4.0721755 4.7787585 2.5119312 2.1843321

StatefulPartitionedCall/sequential_1/BN1_1/batchnorm/mul:0 f4 [1, 64, 1]
00000000: 3171 6641 e376 9341 5ffe e141 0f13 c841
00000010: 055d d141 4bcc 9c41 d1ad 9b41 be15 b541
00000020: bd9a df41 e35f 6741 a171 e241 f9b2 bb41
00000030: a171 e241 5f06 9941 8bb1 b041 848d d441
00000040: d345 dd41 c4c9 dc41 0787 d641 aa4b c941
00000050: a171 e241 1849 9541 2dd6 8c41 a171 e241
00000060: e5a9 a441 4d21 9641 8a44 c141 74aa 8241
00000070: 875d da41 a171 e241 98e4 b441 5c55 5f41
00000080: c257 e341 9d59 e541 f81f d041 8408 a741
00000090: 1b71 ce41 a3ba 7741 f492 ec41 4835 8d41
000000a0: 8816 8241 ff93 e341 0514 a341 72ff bd41
000000b0: 0d34 8641 7308 bc41 a171 e241 85f8 9241
000000c0: a171 e241 5a67 e241 bbcd e941 a171 e241
000000d0: 36ee bd41 a171 e241 c727 d141 c377 a941
000000e0: 6400 c841 a171 e241 1993 dd41 29d5 9d41
000000f0: a171 e241 fd70 c041 6452 c441 29c2 8441
14.402635 18.43305 28.249205 25.009306 26.17042 19.599752 19.459871 22.635616
27.950556 14.46091 28.305483 23.462389 28.305483 19.12811 22.08669 26.5691
27.659094 27.598518 26.815931 25.161945 28.305483 18.66069 17.604578 28.305483
20.582956 18.76626 24.158466 16.33323 27.295668 28.305483 22.611618 13.95834
28.41785 28.668756 26.01561 20.879158 25.805227 15.483066 29.571754 17.651016
16.261002 28.447264 20.384775 23.74973 16.775415 23.504126 28.305483 18.371347
28.305483 28.300465 29.225454 28.305483 23.741314 28.305483 26.144423 21.183477
25.00019 28.305483 27.696825 19.729082 28.305483 24.05517 24.54023 16.594805
